checkpoints/hgt_best_model.pt (torch, 992607 bytes, 116 tensors)

lin_dict.user.weight f4 [64, 26]
000000 64 48 a7 3c 31 c4 93 bc ab ec df bd 96 44 76 3b
       0.02042026 -0.018037887 -0.10933813 0.0037577501
000010 76 49 57 be 70 b9 f7 bc 5c 21 b6 bb c8 84 d0 3b
       -0.21024117 -0.03023979 -0.005558176 0.006363485
000020 d4 ac f2 3c 80 f8 00 be 96 63 49 be d4 f9 03 3e
       0.029623426 -0.12594795 -0.19666895 0.1288827
000030 af 7e 9a 3d fd 3c 79 3d aa 32 a0 3d c7 5f ff bd
       0.07543694 0.06084918 0.078221634 -0.1246944
000040 26 5c 28 3e fb b4 94 bd 29 f2 3d 3d c4 d7 15 3d
       0.16441402 -0.07261082 0.04637352 0.036582723
000050 04 2f 76 bc 0b bd e1 3d a5 67 c3 bd d3 14 98 3d
       -0.015025858 0.11022385 -0.09541253 0.07425847
000060 bf e9 35 bd 0d 29 f3 bd 54 7c 49 3e d0 65 a3 bd
       -0.04441237 -0.11873064 0.19676334 -0.079784036
000070 ef 1c d2 bd 03 1e f2 3c a3 47 a4 3d be d9 0e bd
       -0.10259425 0.029555326 0.08021476 -0.034875624
000080 48 3e bf 3d 62 ed a8 bc 51 2a 03 bc 3a 36 d8 bc
       0.09338051 -0.020621005 -0.0080056945 -0.026393045
000090 8f 51 01 3e f8 b9 f7 3d 6d 74 d7 3d 21 36 fa bc
       0.12628768 0.120960176 0.10520253 -0.030543389
0000a0 17 bc 89 3d e9 ac df bd b0 82 ee bd 4c ef f6 ba
       0.067253284 -0.10921652 -0.116460204 -0.0018839627
0000b0 45 34 24 3e a0 27 32 be 91 f6 4e 3e 88 5b fa bc
       0.16035564 -0.17397928 0.20211245 -0.030561224
0000c0 d3 f9 38 bd b0 c3 2e bd 14 f4 70 3d af 27 49 3c
       -0.045160126 -0.04266709 0.05882652 0.012277528
0000d0 8e 3e 2f be 68 7e ec 3d 74 54 02 3e 4a 12 b3 39
       -0.17113706 0.115475476 0.12727529 0.00034155167
0000e0 ed 34 0b 3e c0 27 62 3e 29 33 ba bc 8f c7 fc 3d
       0.13594408 0.22085476 -0.022729473 0.1234275
0000f0 6c fc 4e 3d 17 d5 ba 3d e3 01 ea bd 91 aa a0 bd
       0.050533697 0.09122675 -0.11426141 -0.07845033
000100 d9 25 db bc 79 ae c6 bd 13 f9 80 bd 1b 52 d5 bc
       -0.026751446 -0.09701247 -0.06297507 -0.026040128
000110 28 33 b3 3d 56 9c 65 bd fa a6 dd 3c db f8 08 be
       0.08749992 -0.056057297 0.02705716 -0.13376181
000120 ea fd ec bd aa fe 38 be 30 01 59 ba 3a 14 0a bc
       -0.11571868 -0.18065897 -0.000827807 -0.008427674
000130 5c dc 3b 3e b0 68 c0 3d 21 5c 5b bc 23 69 d7 3d
       0.18345779 0.093949676 -0.013388664 0.105181
000140 14 0f 20 3d b6 81 d8 3d 42 d6 3e 3e c4 31 04 3e
       0.03907688 0.105716154 0.1863642 0.12909609
000150 7c ea 74 bd 49 9b 54 bc c3 be 25 3e bb d3 35 bd
       -0.059793934 -0.012976476 0.16186051 -0.044391375
000160 e0 9c e3 bd 49 11 16 3e 9d 1e 8b 3d f1 7c 36 3e
       -0.11113906 0.14655031 0.067929484 0.17821099
000170 53 13 30 3d 9d 1d 2b be ab b4 2b 3e 5a 0a ca 3d
       0.04298718 -0.16710515 0.16768138 0.09865256
000180 7f db 19 bc cd 0e af bc fb 91 15 3c 61 30 37 3e
       -0.009390711 -0.021369362 0.009129043 0.17889549
000190 d8 87 4a 3e 14 29 5b 3e 4b a6 86 bc 9b 8b 24 be
       0.19778383 0.21402389 -0.016436717 -0.1606888
0001a0 47 51 47 bd bc 53 24 3e e9 b5 c4 3d 5f 20 13 bd
       -0.048661496 0.16047567 0.09605009 -0.035919543
0001b0 03 bd cc 3d c0 bb ed 3d a1 42 09 be 92 ba 4f 3e
       0.099969886 0.11608076 -0.13404323 0.20286015
0001c0 73 34 46 bb d1 4d 25 bd da 0f b3 bc 60 7d 6f bd
       -0.0030243665 -0.040357415 -0.021858145 -0.058469176
0001d0 77 69 59 3e cf e1 f4 bd 5a 40 bb 3c 48 7a ba bd
       0.21231638 -0.11957132 0.022857834 -0.091053545
0001e0 2e c9 27 be 14 4e a7 bd 4b da 9c bd 5f 92 a2 bd
       -0.16385338 -0.08169189 -0.076588236 -0.07938074
0001f0 ea c0 2f 3e f6 1e 4a 3e eb b1 7f 3d af 25 ed 3b
       0.17163435 0.19738373 0.062425535 0.0072371583
000200 ff 96 d0 bd ae 97 8b bd 06 c6 a2 bd 09 cb bc 3d
       -0.1018505 -0.0681604 -0.07947926 0.092184134
000210 5e a0 ab bc 6e 84 1c 3d ed 74 50 3d 6b b5 3d be
       -0.020950492 0.038212232 0.05089276 -0.18526237
000220 5b 4d 09 3d 64 3f 28 be 59 81 1a be 5d 64 24 be
       0.033521038 -0.16430432 -0.15088405 -0.1605391
000230 d9 5c 48 be 75 74 51 bd b2 0f 74 bc 8f a8 aa bd
       -0.19566669 -0.051136453 -0.01489632 -0.08332931
000240 0f 50 f8 bd 6c 24 3f be da 64 04 be 05 d1 10 be
       -0.12124645 -0.18666238 -0.12929097 -0.14142235
000250 7a 40 16 3e fe 21 4a be 5e a3 03 3d af 59 23 3d
       0.14673033 -0.1973953 0.03213822 0.03988045
000260 e8 42 81 3d d7 43 e2 3d 06 4c eb bd 66 29 a7 bd
       0.063115895 0.11048096 -0.1148911 -0.08162193
000270 d6 28 e0 bd 4e 07 f3 bd 88 9a 42 bb d8 1a 17 bc
       -0.10945289 -0.11866628 -0.0029694159 -0.009222709
000280 14 72 29 bd 7b ba 44 3d b1 45 87 3d a5 e3 b5 bc
       -0.04136856 0.048029404 0.066050895 -0.022203276
000290 57 7f 62 bd 64 fc c6 3d 1a 89 22 be a5 ad 96 bd
       -0.055297222 0.097161084 -0.15872613 -0.07357339
0002a0 b2 1b 16 bd 11 b1 c5 3d f2 cb 26 3d ac 5d b5 bd
       -0.036647506 0.09652913 0.04072184 -0.08855757
0002b0 58 e8 a7 3c 65 4c 4c be f0 be ad bd 00 90 a6 bc
       0.020496532 -0.19951017 -0.08483684 -0.020332336
0002c0 14 a8 26 3e 0e a5 1a 3e 2f c8 9e 3d b3 22 0c 3e
       0.16275054 0.15102026 0.07753026 0.13685112
0002d0 b7 44 7b 3d 37 ca 3f 3e 46 18 a4 bd 39 92 85 bd
       0.06134483 0.18729483 -0.08012442 -0.065220304
0002e0 23 38 cf 3d b1 68 3e 3e fa ca 99 3d 39 c7 de 3d
       0.10118129 0.18594624 0.07509418 0.108778425
0002f0 bd d1 18 3e 21 c7 e1 3d 6b 67 72 bd ec af 37 be
       0.14923759 0.11024309 -0.05918066 -0.17938203
000300 ce 20 b8 3d 0e 8b 29 be 04 4e 47 bd f7 42 36 be
       0.08990632 -0.16556951 -0.048658386 -0.17798983
000310 4e a1 ac 3d e5 ea 2c bd a0 25 07 be d4 22 fb 3d
       0.08429204 -0.0422162 -0.13197947 0.12262502
000320 c1 60 39 be 9f 13 3d bd 5c a4 8f bd 91 02 e3 3c
       -0.18103315 -0.04616129 -0.07013771 0.027711185
000330 70 ce 0f be 26 b0 c0 3c ac 13 f4 3d 9e a3 86 bd
       -0.14043593 0.023521494 0.119178146 -0.06574176
000340 81 1f 0d bd 20 8e 09 be d0 b7 14 be 39 ad 0e be
       -0.034453873 -0.13433123 -0.14523244 -0.13933267
000350 b0 c4 2d 3a 1d 4c 91 3d c1 6a b3 bd b1 f3 e6 3d
       0.0006628735 0.070945956 -0.08760596 0.11276949
000360 46 f6 3a be 55 07 50 be b2 d0 73 3d 0d 68 1c be
       -0.18258008 -0.20315297 0.0595252 -0.15274067
000370 09 44 1c be d3 9e c4 3c 58 47 54 bd 6b e8 3b 3d
       -0.15260328 0.024001515 -0.05182585 0.045875948
000380 d9 75 c9 3d 38 83 90 bd 97 54 46 be 63 1b 80 3c
       0.09836931 -0.07056278 -0.19368206 0.015638059
000390 cd 28 88 3d 1a e8 1a be 66 82 11 bd cb 71 3c bd
       0.06648407 -0.15127602 -0.03552475 -0.04600696
0003a0 b8 57 3c be 3c 34 ac bd 9e 5a 19 3d cf e3 1b 3e
       -0.18392837 -0.084084004 0.037439935 0.15223621
0003b0 f1 66 b4 3c 6f 42 90 3c 24 b6 54 3e 99 eb 5f 3d
       0.022021743 0.017609803 0.20772606 0.054668043
0003c0 6d 6a cf 3d 03 a2 d5 3d 74 45 dc 3d a2 5e 2f be
       0.10127721 0.10431292 0.10755435 -0.17125943
0003d0 ba 7b 47 3e 13 c7 99 3d 65 a9 04 be 0f 37 38 3e
       0.19480792 0.075086735 -0.12955244 0.17989753
0003e0 9a ab 69 3c 5f 74 0a 3e df e0 db bd 39 d6 23 be
       0.014262104 0.13520955 -0.1073625 -0.15999688
0003f0 c9 f7 9c 3d 62 66 1b 3d 77 7c f6 3d 97 ae 36 be
       0.07664449 0.037939437 0.120354585 -0.17840038

lin_dict.user.bias f4 [64]
000000 0b 67 1e bd 0b be a7 3d 47 14 cb 3c 94 06 3f bd
       -0.03867249 0.08190545 0.024789942 -0.046637133
000010 8c d4 34 3e 3e 33 30 be 49 38 20 3d 2b ea c4 3d
       0.17659205 -0.17207047 0.039116178 0.096149765
000020 bb 3e db 3d 13 ec fb ba 27 fb 31 be 8b 3a d1 3c
       0.10705324 -0.0019220136 -0.17380963 0.02554061
000030 b0 ad a3 bc 61 97 0b 3e 55 9c 53 3e 66 3c e9 3c
       -0.019980282 0.13631965 0.20665105 0.028471183
000040 cf 3b 63 bc ed 33 38 bc ed 95 03 be d3 71 58 bd
       -0.01386924 -0.011242849 -0.12850161 -0.052842926
000050 ff c1 03 be 21 1e 18 3e 21 f0 61 3d a4 82 3f be
       -0.12866972 0.14855243 0.055160645 -0.18702179
000060 a9 25 b2 3d 08 da a5 bd b8 a4 1f be 5d 75 44 3e
       0.08698589 -0.08098227 -0.15590179 0.19185396
000070 5b 08 aa bc e6 0b c0 3d 03 31 ec 3d 8f 6d f6 3d
       -0.020755937 0.093772694 0.11532786 0.120326154
000080 05 2d c3 bc 0e 39 be 3d d3 c1 52 bd ee fa 27 be
       -0.023825178 0.09288226 -0.051454376 -0.16404316
000090 02 41 9e bd fc ad 6f 3d 46 74 46 3e 56 53 24 be
       -0.07727243 0.058515534 0.19380292 -0.16047415
0000a0 13 50 71 bd 9a 7f 77 bd 4f da 46 bd e9 e4 b4 3d
       -0.058914255 -0.060424425 -0.04854804 0.08832724
0000b0 dd 97 0e 3e 85 e5 f2 3c ae 36 d3 3d 24 c0 44 3e
       0.13925119 0.029650459 0.10313164 0.19213921
0000c0 66 e8 c5 bd 63 1b 4e 3e c4 f7 7f 3d 0f f9 e9 3d
       -0.09663467 0.20127635 0.062492147 0.11424457
0000d0 c8 d9 d9 3d e9 74 3e be fd 90 3f 3d dc 74 2e bd
       0.106372416 -0.18599285 0.04676913 -0.042591915
0000e0 b1 5f f5 3d 1c f4 c8 bd 3a 1c 2f 3d 52 7b f2 bd
       0.11981142 -0.09812185 0.04275153 -0.11839928
0000f0 ed da e4 3c 92 38 d9 bd cc e8 2b be a2 6e 22 3e
       0.027936423 -0.10606493 -0.16788024 0.15862516

lin_dict.place.weight f4 [64, 47]
000000 91 b6 18 3b eb d5 0b be 35 43 29 be f1 0c 6c 3d
       0.0023302177 -0.13655822 -0.16529544 0.05762953
000010 a4 8b 82 3d 87 ff a0 3c 6e ab c2 3a 5c 2d 89 bd
       0.063742906 0.019653095 0.0014852115 -0.06698105
000020 05 2b c7 3b 32 34 3c 3d b8 fb 63 3d 30 a8 3d be
       0.0060781264 0.045948215 0.05565998 -0.1852119
000030 ea ac 20 3e c2 b2 5e 3d 18 be c9 3d 6f c0 0f 3e
       0.15690961 0.054369695 0.09850711 0.14038251
000040 b0 df 11 3e 7e 61 05 bd dd 4e 66 3d 42 ab 82 bd
       0.14245486 -0.03256368 0.056227554 -0.06380321
000050 db cf f1 3b 76 fc be 3d 2a ba e2 bd 32 80 af bd
       0.0073795146 0.09325497 -0.11070664 -0.08569373
000060 ca 3c 4f be 99 03 80 bd 74 b8 e4 3d 30 51 db 3b
       -0.20238033 -0.06250686 0.11167994 0.006693028
000070 d5 79 79 bd 58 00 a3 bc 89 62 17 bd f1 53 a9 bd
       -0.060907204 -0.019897625 -0.036959205 -0.08267964
000080 64 ba e7 3d 39 7b 07 3e 68 1f a8 3d f3 69 ec bd
       0.11314848 0.132306 0.08209115 -0.11543646
000090 82 25 bd bd d3 b9 07 3d b0 5d 57 3d 02 fa 07 3e
       -0.0923567 0.0331362 0.05257958 0.13278964
0000a0 4e a5 26 3e 34 78 8b 3d 9c 2b a2 3d 84 b8 2f 3e
       0.16273996 0.06810036 0.07918474 0.17160231
0000b0 5c 63 3f bd 2a 85 d5 3d 18 c5 88 bc b5 f2 8c 3d
       -0.046725616 0.1042579 -0.016695544 0.0688223
0000c0 0c b9 19 3e 35 9d ef bd 9f 20 00 be ba 6e 25 bb
       0.15011996 -0.11699907 -0.12512444 -0.0025243
0000d0 62 90 a5 bc 47 8f bb 3d 87 a2 d5 3d c5 fc b4 3d
       -0.020210449 0.09158187 0.1043139 0.088372745
0000e0 ef 23 7d bd 7e ca ca bd 7f 6f 25 be ea ff 38 3d
       -0.061801847 -0.099019036 -0.16155814 0.045165934
0000f0 ac aa 4f bd 2e 4e be 3d 1a c6 20 3d 10 11 b4 bd
       -0.050699875 0.09292255 0.039251424 -0.08792317
000100 ce 6e 4d 3d c1 db 77 3d 49 6d a5 bc e4 90 0b 3e
       0.0501545 0.060512308 -0.020193713 0.1362949
000110 49 ee 6e 3e 2b 13 77 bb 62 be 33 3d 91 37 e4 3d
       0.23333086 -0.0037700634 0.043882735 0.11143411
000120 d0 6e cb 3d 1e b0 d3 bd cb 12 bf 3d d6 82 b4 3a
       0.09933245 -0.10336326 0.09329756 0.0013771902
000130 d7 88 1b 3e 60 90 0d be b9 aa 0e be 34 9a 8a 3d
       0.15188919 -0.13824606 -0.13932313 0.06767693
000140 08 a3 da 3d 56 b4 cb 3d 12 3a ab bd c8 39 84 bd
       0.10675627 0.09946506 -0.083606854 -0.064563334
000150 ef 81 da bc dc 17 fc 3d a0 b7 c1 3d 87 0e ae bd
       -0.026673285 0.12309238 0.09458852 -0.084988646
000160 81 3c 4b be e4 e2 83 bd e4 7b 58 bd 30 8a 80 3d
       -0.19847299 -0.0643976 -0.052852526 0.06276357
000170 b0 3c b5 bb 8e d3 25 be 1e 6c df 3d 2c 6c 18 3c
       -0.005530916 -0.16193983 0.109092936 0.009303134
000180 a9 50 0d bd 4e 52 10 be a5 18 58 bb 77 ab 1c be
       -0.03450075 -0.14093897 -0.0032973674 -0.15299784
000190 6d a7 5f bd ac 07 71 3d 8e ca a0 3d 3e e6 09 bd
       -0.05460303 0.058845207 0.07851134 -0.03366684
0001a0 1d ad a2 3d 68 d0 aa bd 57 f9 1d 3e c8 cc 66 3c
       0.07943175 -0.083405316 0.15427147 0.01408691
0001b0 8d 05 eb 3d 69 55 03 bd 9e 0d 0c 3e e2 18 a2 bb
       0.11475668 -0.032063875 0.1367707 -0.004946814
0001c0 99 dd 50 be 05 92 83 bd a6 39 cc 3c ff f9 48 3e
       -0.20397033 -0.064243354 0.024929833 0.19626616
0001d0 29 37 08 3e 5b e4 d5 bd 98 cd 11 3e 4d 02 86 bd
       0.13302292 -0.10443946 0.14238584 -0.065434076
0001e0 8a 66 42 3d 83 36 d1 3c 20 dd ce bc 2f 36 ba ba
       0.04746107 0.025538689 -0.025251925 -0.0014206822
0001f0 db ad 9b 3d e4 d0 12 3e 87 56 41 3d 2b 67 ef 3d
       0.0760152 0.14337498 0.04720166 0.116895996
000200 d9 da 9b bc 19 10 0f be 7f e4 84 3d b7 cf f5 bc
       -0.019025253 -0.13970985 0.06488895 -0.030006273
000210 06 b0 da 3d 19 97 3b 3b ee 73 ab 3d b6 70 c3 3d
       0.10678105 0.0028623997 0.08371721 0.09542982
000220 b3 6d a4 bd 7d 65 65 bd 01 ae ac 3d ec d8 34 3d
       -0.08028736 -0.05600499 0.08431626 0.044152185
000230 c2 ae e4 3d 50 16 1a be db 66 8d 3d 55 de 91 3d
       0.11166145 -0.15047574 0.06904384 0.071224846
000240 68 c7 64 3c ea 90 51 3d 07 62 90 3c 7c 86 cc bd
       0.013963558 0.05116359 0.017624868 -0.09986588
000250 75 e8 9c 3d d5 28 2e bd c3 05 60 bd ba 5e bd 3d
       0.07661525 -0.04251941 -0.054692995 0.09246583
000260 9a 80 05 be 21 57 a2 bd 83 9d e6 3d 47 50 78 3d
       -0.13037339 -0.07926775 0.11260512 0.060623433
000270 f6 e1 e8 bd b4 63 b9 3c 06 5b f0 bb 2c 8a f8 bd
       -0.11371224 0.02263055 -0.0073350696 -0.12135729
000280 0b 99 d6 3d e8 07 56 be 09 4a 01 be a3 57 33 bd
       0.104784094 -0.20901453 -0.12625898 -0.04378475
000290 0b fe db bd 43 0e 44 3d a2 89 56 3d 07 f1 a7 3c
       -0.10741814 0.047865164 0.05237735 0.020500673
0002a0 4a fc ef bd 2c 8e 14 bc 7b 9b 00 be 11 2b 79 3d
       -0.11718042 -0.0090671 -0.12559311 0.060832087
0002b0 a9 36 ed bd 4a 15 27 be 1f 27 12 be 58 50 c0 bc
       -0.11582691 -0.16316715 -0.14272736 -0.02347581
0002c0 7c 86 20 bd 13 dd ee 3d 0b 3d 1e be 0d 4e 81 bd
       -0.039190754 0.1166326 -0.15452974 -0.06313715
0002d0 8f f9 9f bd b9 84 87 3d 73 ee d6 bc 95 70 a3 bd
       -0.078112714 0.06617112 -0.026236748 -0.07980458
0002e0 58 7f 8a bd c8 99 1c bd 1b 5b 2c bc 5b 6e 83 bd
       -0.0676257 -0.038232595 -0.010519768 -0.06417533
0002f0 d2 30 92 bd 42 01 31 bd ee 24 89 bd bd a2 bd 3b
       -0.07138218 -0.04321409 -0.06696497 0.005787222
000300 36 7b 14 be a6 fe ee 3d e4 fb 7d 3c c3 d5 42 bd
       -0.14500126 0.11669664 0.01550195 -0.04756714
000310 8c bc b0 bc b0 10 0f 3a cc 57 c2 3d 7a 41 6c 3d
       -0.021574281 0.0005457504 0.09489402 0.05767963
000320 43 94 cd 3d e6 ba 3e bd 88 0c c3 bd c5 f4 f1 3d
       0.10038044 -0.04656496 -0.095238745 0.11814264
000330 3b b3 c1 3d 1e 4f dc 3d d8 23 22 3d 19 e6 65 be
       0.094580136 0.10757278 0.039584965 -0.22451057
000340 f9 44 8a 3d 99 81 e5 3d a7 02 84 bd 4d 17 0e 3e
       0.06751437 0.112063594 -0.064458184 0.13876076
000350 96 2a e6 bd 65 05 94 3d e8 8f 2d be 38 22 96 3d
       -0.112385914 0.072275914 -0.16949427 0.073307455
000360 69 e9 24 bd 10 fe c7 3c 45 5d ed bd 7b 66 d6 bd
       -0.04026166 0.024413139 -0.115900554 -0.10468765
000370 a0 d8 d0 bd 3b 12 bc 3d 27 4c dc bc b0 1a 8e 3d
       -0.10197568 0.09183165 -0.026891781 0.06938684
000380 4b 28 93 bb 69 06 82 bd d5 21 30 bd c7 e6 46 bc
       -0.0044908873 -0.06348879 -0.043001015 -0.012139983
000390 8f 7e 31 bd 9c 16 d1 bd 76 57 65 bc d1 5f e9 3d
       -0.043333586 -0.102093905 -0.013997903 0.11395229
0003a0 ab 0b ea 3d e2 9d c7 bd 24 8c a2 3d f5 58 e5 3c
       0.11428007 -0.09746911 0.07936886 0.02799652
0003b0 f6 29 9b bc 07 10 43 bd c9 96 c7 3d 38 35 01 be
       -0.018940907 -0.047622707 0.09745557 -0.12617958
0003c0 e0 be 6b 3d 9d 28 10 3e 8d 4d 44 bd f5 2a a5 bd
       0.05755508 0.14077993 -0.04792552 -0.08064834
0003d0 87 68 52 3d 5f f0 a5 bd 7b c7 da bd 64 d8 2f be
       0.051369216 -0.08102488 -0.10682579 -0.1717239
0003e0 1c 99 b3 3c 74 78 2d 3d 0a 96 5c be 06 ae 5d 3c
       0.021923594 0.0423512 -0.2154161 0.01353026
0003f0 6f a5 4f 3e b5 f1 35 be a2 61 b5 bd 3c fc 56 3d
       0.20277952 -0.17767985 -0.088565126 0.052486643

lin_dict.place.bias f4 [64]
000000 a2 6d 77 3d 86 8c ac 3d c8 1c f1 bb 01 11 06 bc
       0.06040729 0.0842524 -0.0073581673 -0.008182765
000010 e4 c4 c9 bd 6a ab b7 3c 59 25 d8 3d 08 6c a3 3d
       -0.09852007 0.022420604 0.105539985 0.0797959
000020 9d b7 9f 3c ab 4d a7 3d 29 e3 fb 3d e1 a8 17 3d
       0.019496733 0.08169111 0.12299187 0.03702629
000030 50 ff c0 3c 68 04 2c bb 35 79 7c 3d 04 d9 c1 3c
       0.023559242 -0.0026247744 0.06163903 0.023663051
000040 d0 30 a9 bd 95 81 7a bd 35 08 54 bb 28 53 86 bd
       -0.08261263 -0.061158735 -0.0032353525 -0.065588295
000050 a9 52 bd 3d 20 2e 7b 3d 17 66 4a be 67 48 3b be
       0.09244282 0.061323285 -0.19765507 -0.18289338
000060 60 73 c0 3d 1d 35 0b be c8 cd 85 bd 3a 22 b2 3d
       0.09397006 -0.1359448 -0.0653339 0.086979344
000070 ab 3d 4d bd c7 36 3c bd 6a 0e d1 bc bf 64 19 be
       -0.05010764 -0.045950677 -0.025519568 -0.14979838
000080 bd d6 f7 bc 86 3a 2f bd d1 93 c4 3c 27 3e 1d be
       -0.030253762 -0.04278042 0.023996266 -0.1535574
000090 da f6 13 3e 30 de 4e 3c b1 2c e9 bd 83 ed 18 3c
       0.14449635 0.012626216 -0.11385477 0.009333971
0000a0 dd 3d 67 bd 31 6a 6d 3d 6a eb 1c 3e ec ca 26 be
       -0.05645548 0.0579626 0.15324178 -0.16288346
0000b0 ee 99 11 3c dd a2 0f 3e b3 be 73 3c c6 bf 02 bc
       0.008886797 0.14026971 0.014877009 -0.007980293
0000c0 ff 26 cf bd 91 31 c0 bd c0 61 d1 bd 83 fc 7f 3d
       -0.1011486 -0.09384454 -0.102237225 0.062496673
0000d0 f9 3a 25 bd d5 ca 82 3d 0d 07 f9 bd 1b f4 1e be
       -0.040339444 0.063863434 -0.12159548 -0.15522806
0000e0 bd 75 c4 3d c9 e3 a3 bb b5 a9 6d 3d 61 93 0e be
       0.09592769 -0.0050015193 0.058023173 -0.13923408
0000f0 df f6 9f 3d e6 f3 e2 bc b7 f9 65 be b9 aa 19 3e
       0.07810759 -0.02770419 -0.2245854 0.15006532

lin_dict.event.weight f4 [64, 9]
000000 b9 f0 83 bd 7f 58 aa bd 2f d2 40 3e d0 3f 82 3e
       -0.064423986 -0.083176605 0.18830179 0.2543931
000010 69 d8 75 3e 1b e3 b8 bd 91 3d 9c be 7e dc 8b 3e
       0.24008335 -0.09027692 -0.3051572 0.2731666
000020 53 bb 5a be 2f 1f 41 3e 7d c7 ac 3e db 21 1c bd
       -0.21360521 0.18859552 0.33745947 -0.038118225
000030 92 7a 56 3e 7f 44 c8 bd 09 34 52 be 20 c3 97 3e
       0.20945194 -0.097786896 -0.20527662 0.29641056
000040 d7 26 0c 3e 9f da 77 bd e4 55 90 be c1 eb 4f bd
       0.13686691 -0.060511228 -0.2819053 -0.05076194
000050 6c 20 3b 3d 1c 5e 64 be c3 e5 16 be 8b 7d ed 3d
       0.045685217 -0.22301525 -0.14736085 0.11596211
000060 44 a5 48 3d ca 20 9f 3e f6 06 16 3d 11 a0 7a bd
       0.048985735 0.31079704 0.036627732 -0.061187807
000070 7e f8 1d be fc df e0 be 08 53 4b 3e c1 5d 50 3d
       -0.15426823 -0.43920887 0.19855893 0.05087066
000080 14 c8 37 3e b6 a7 c6 3e 3e 10 8b 3e 26 11 4c 3e
       0.17947417 0.38799828 0.2716083 0.19928417
000090 6e a4 88 be db a5 8a be 63 10 98 3d ac 39 bd 3d
       -0.2668795 -0.27079663 0.074250005 0.09239516
0000a0 21 d2 ca bd d9 e5 ad bc 77 9a 42 3e b7 8b 9e be
       -0.0990336 -0.021227764 0.19004236 -0.3096597
0000b0 6b 5d 4a be 84 2a db bd 79 59 a9 3e ad 59 42 3e
       -0.19762199 -0.107014686 0.33076075 0.18979521
0000c0 c3 42 ad be 55 13 d4 bd 60 05 f4 3c bc e6 28 be
       -0.33839998 -0.1035525 0.02978772 -0.16494268
0000d0 d4 56 85 bc 43 c8 a5 be b6 6b 95 be 9b b9 a8 3e
       -0.016276754 -0.3237935 -0.2918374 0.32954106
0000e0 cb ca cf bb 05 0e 41 3e 8e 78 8c 3d 68 a6 c1 bd
       -0.0063413135 0.18853004 0.068589315 -0.094555676
0000f0 a4 00 a2 be 5d 51 99 3e 01 fa 86 3e 5e 5a f2 bd
       -0.31641114 0.29944888 0.26362613 -0.118336424
000100 af dd 31 bd b4 41 42 be 03 6b 8f 3e fc 19 83 be
       -0.043424305 -0.18970376 0.2801133 -0.25605762
000110 cb 6a 85 be 1f 53 75 be c7 85 51 3e 96 fa 3f bd
       -0.2605804 -0.2395749 0.20461188 -0.046869837
000120 f5 2d b9 bd c7 69 18 3e ce 24 0b bd df 84 2f be
       -0.09041969 0.14884101 -0.033970647 -0.1714053
000130 ac 32 07 3e 2f a3 88 3e c2 0b e7 3b 2c cc 91 3e
       0.13202924 0.26687 0.007050962 0.28476083
000140 34 92 9c 3e 40 68 97 be f8 ce 42 be 21 92 99 be
       0.30580294 -0.29571724 -0.19024265 -0.299943
000150 95 4a 6c 3e b2 a6 20 be ea 71 b0 be b0 ea 79 39
       0.23075326 -0.15688589 -0.3446191 0.00023833918
000160 bc 1d 33 bd 46 8d 5f be b4 73 c3 3d 60 73 11 3e
       -0.04372953 -0.21831235 0.09543553 0.14204168
000170 cc 60 18 3e 88 b4 9f be 21 e0 ac bd a0 03 09 3e
       0.14880675 -0.31192422 -0.08441187 0.13380289
000180 93 8c a3 3e be ea 10 3e 5b f2 03 3e 56 56 ea bd
       0.31943187 0.14152047 0.1288542 -0.114422485
000190 0b 31 fa ba f2 82 ad be e8 db 7f be 8e 1e 42 3e
       -0.0019088102 -0.33888966 -0.24986231 0.18956968
0001a0 de a9 ea bd c7 d5 22 be b9 04 cb bd 09 14 3a 3e
       -0.11458181 -0.15901862 -0.0991301 0.18171705
0001b0 53 06 c7 bd 6c b9 ab 3d ac b3 3c bc d9 09 63 be
       -0.09718003 0.08384976 -0.0115174465 -0.22171725
0001c0 82 eb a7 be 67 61 47 be f4 8b 8f be 0a c3 8d be
       -0.32796866 -0.1947075 -0.28036463 -0.27687865
0001d0 87 2b 94 3d fe b4 08 be 77 dd d9 3d c5 ea 09 be
       0.07234865 -0.13350293 0.10637944 -0.13468464
0001e0 10 f1 ae 3c e1 64 8a be db 14 54 bc 68 42 1e bd
       0.021355182 -0.2703009 -0.012944425 -0.03863755
0001f0 54 ac ad bd 53 d2 90 be f7 70 a0 3e 5b d6 7a be
       -0.084801346 -0.28285465 0.31336185 -0.24495833
000200 85 62 65 be d7 8a 32 be c3 6d 42 bd fc 52 2d 3e
       -0.22400863 -0.17435776 -0.04746796 0.16926187
000210 f6 61 3a bd b9 ab 2c 3e 81 34 11 be af 53 9c be
       -0.04550358 0.16862382 -0.14180185 -0.30532596
000220 d3 42 09 be 83 90 cd 3d 5b 57 ab 3b 07 d1 99 3d
       -0.13404398 0.10037329 0.0052289194 0.07510572
000230 25 a8 35 3e 7f c0 9d 3e d0 67 dc bd 35 99 86 3e
       0.17739923 0.30810925 -0.10761988 0.26288763
000240 03 ec e8 3c 48 ed 20 3c 51 83 ad 3c 39 dd f4 bd
       0.028432852 0.009822197 0.02118078 -0.119562574
000250 6e 4c 55 be f5 3e 5f 3e 12 81 0e 3e 04 ac 9c be
       -0.20829937 0.2180136 0.13916424 -0.30599988
000260 52 02 1d 3e b2 9f 68 3d 0a bc 1b be f4 75 c4 be
       0.15332916 0.056792922 -0.1520845 -0.3837124
000270 4e 38 4c bd 52 bc 83 3e e1 e5 9d be 26 1d a1 bd
       -0.049858384 0.25729614 -0.30839446 -0.07866888
000280 9b 76 83 be 60 5a e5 3d de 4f f0 bd cb 1d f3 bd
       -0.25676426 0.11198878 -0.117339835 -0.11870917
000290 00 ea 5b 3e 48 5c 72 bd 66 40 4c 3e 89 0e 44 3d
       0.21475983 -0.059170038 0.19946441 0.047865424
0002a0 d6 d0 84 3d af cc 77 be 57 87 91 be bd d9 ba 3c
       0.06485145 -0.24199174 -0.2842357 0.022808904
0002b0 bc 35 be 3e 73 e0 81 3e a7 6e d6 bd ee 41 c2 be
       0.3715037 0.25366554 -0.10470324 -0.37940925
0002c0 07 4c ce bc 3f 3b 90 3e c4 61 1a be c0 51 cd 3d
       -0.025182737 0.281702 -0.15076357 0.10025358
0002d0 ed da 89 3e 87 bf 97 3e d0 d7 7a be 87 7b 9f be
       0.2692484 0.2963831 -0.24496388 -0.3114893
0002e0 8c 49 4c 3e 62 cf 95 be d0 b8 27 be 35 48 4c be
       0.19949931 -0.29259783 -0.16379094 -0.1994942
0002f0 e0 65 f5 bd 54 f8 9b 3e a1 c9 88 be af e9 4f 3e
       -0.11982322 0.30462897 -0.2671633 0.20303987
000300 32 1e 17 be 57 53 95 be 4a 87 33 be b5 15 55 3d
       -0.14757612 -0.29165146 -0.17532077 0.052022655
000310 e9 cf ef bd 0d 10 0f 3e 05 cb 0f 3e 7b 95 18 3e
       -0.117095776 0.13970967 0.1404229 0.14900772
000320 ea d7 23 bd 0b 9f 28 bd 2c 66 63 be e1 19 9e 3d
       -0.040000834 -0.0411673 -0.22206944 0.0771978
000330 de 5d 5d be 08 c6 60 3d d1 5e 79 3d 40 2a 10 3e
       -0.21617839 0.054876357 0.06088144 0.14078617
000340 98 6c c8 bd d1 09 2b bd d0 2c 63 bc cc b4 c9 3d
       -0.097863376 -0.04175741 -0.013865665 0.098489374
000350 c4 88 80 3d 6a 60 a5 3e 59 ce 51 3e f8 44 9f be
       0.06276086 0.3230012 0.20488872 -0.31107306
000360 40 a7 3a 3e 69 70 28 be 6c 6d 37 be 77 7e 99 be
       0.18227863 -0.16449131 -0.17912835 -0.29979298
000370 2b 1d 32 be 22 12 08 be 44 45 b0 3d 05 35 95 3d
       -0.17393939 -0.13288167 0.08606961 0.07285503
000380 ce fa f2 bd 18 71 f3 bd b5 a3 fe 3d 20 fb 71 3e
       -0.118642434 -0.11886805 0.124335684 0.23630953
000390 1b a1 46 3e 57 f2 ee 3d bb 57 72 3e e4 21 9a 3e
       0.19397394 0.116673164 0.23666279 0.30103981
0003a0 8a aa 5d 3e 6f 52 12 be 22 de 95 3e ce 35 5d 3e
       0.21647087 -0.14289258 0.29271036 0.21602556
0003b0 e8 5e a4 3e 3f d1 8d 3e 6b 6b d2 bd f5 40 53 3e
       0.32103658 0.27698705 -0.102743946 0.20630248
0003c0 a7 48 f3 bd 87 9e b2 3b e8 a5 72 3e cb 2f e0 3d
       -0.11879092 0.005451027 0.236961 0.10946616
0003d0 4c 6d fc 3a de f2 a9 bd 8e 0a 80 be b2 0b ac 3e
       0.0019258647 -0.08298276 -0.25008053 0.33602673
0003e0 91 21 66 bd 9f 93 ce bc 5f b3 2e be 88 24 4e bd
       -0.056184355 -0.025216876 -0.17060612 -0.050327808
0003f0 1c 80 cf 3d 27 6d 9e be 7e 36 b1 be 46 a4 31 be
       0.10131857 -0.30942652 -0.34611887 -0.17347822

lin_dict.event.bias f4 [64]
000000 7e bf 82 3e 34 4b a3 3e ba 7d 51 be 1f 8c 92 be
       0.25536722 0.31893313 -0.20458117 -0.2862253
000010 a9 bb b8 3e 53 a0 3c bd 6c 2d b3 bd 06 a6 60 3e
       0.36080673 -0.046051335 -0.08748898 0.21938333
000020 fc f7 78 3e fb 39 70 be 67 c4 8b be ca cd 2c 3e
       0.24313349 -0.23459618 -0.2729828 0.16875377
000030 fb 2c 95 3e 60 51 9f 3d 06 a6 76 3e 6e 32 38 be
       0.2913588 0.07779193 0.2408677 -0.17987987
000040 ea eb 7b be ca 14 5e be 9f 20 65 be 87 1e 4d be
       -0.24601713 -0.21687618 -0.22375725 -0.20031177
000050 eb f3 43 be ed 89 8c 3d 00 21 84 3e 69 e6 d3 bb
       -0.19136016 0.06862245 0.25806427 -0.006466676
000060 71 03 19 3e c6 33 2e 3e 2f f7 a3 3e cb 07 c0 3d
       0.14942719 0.17011937 0.32024524 0.093764864
000070 db 78 81 3d 53 ff 5d 3e b7 2b 69 3c 1b e7 59 3e
       0.063218795 0.2167943 0.014231614 0.21279566
000080 92 a3 52 bd ee ce 1a be 4d 67 85 3e c9 6a 7d 3d
       -0.051425524 -0.15118 0.26055375 0.061869416
000090 7c ec 28 be 65 e4 51 bd 4e d8 21 be f0 0d 3e be
       -0.16496462 -0.051243205 -0.1580517 -0.18560004
0000a0 76 79 bf bd 42 98 80 be 2b fb 8f 3e a7 0d 98 be
       -0.09349339 -0.25116163 0.28121313 -0.29697916
0000b0 09 81 e1 39 25 0c a3 39 ef 5a f0 bd af 02 3d be
       0.00043011483 0.0003109883 -0.11736094 -0.18458055
0000c0 1b f8 41 3e 5e 62 6a 3e 91 05 8b be a0 5c 83 be
       0.18942301 0.22889087 -0.27152684 -0.25656605
0000d0 4e ef 34 3d 5f 07 4d 3e 89 88 d0 bd a5 6d 83 bc
       0.04417353 0.20022343 -0.10182292 -0.016043494
0000e0 89 91 89 bd 24 6b a1 3c 66 6f 27 be 15 94 5f be
       -0.06717212 0.019704409 -0.16351089 -0.21833833
0000f0 24 b5 6d be a0 5c 59 3e 62 92 83 be 68 ac 8a bd
       -0.23213631 0.2122674 -0.2569762 -0.06771165

lin_dict.item.weight f4 [64, 14]
000000 15 07 1c 3e 26 09 87 3e 8d 82 b3 bd 38 9a 14 3e
       0.15237077 0.26374167 -0.08765135 0.14511955
000010 60 62 24 3e af c2 92 be b7 e5 58 bd 73 f6 80 3e
       0.16053152 -0.28664157 -0.05295345 0.25188026
000020 26 97 ff 3c 7d 0a 2f 3e 7a 81 3e bd f9 58 ab 3d
       0.031200003 0.17093845 -0.046510197 0.083665796
000030 12 13 f0 bc 7d 02 ec 3d 96 8e f1 3d 4f a1 6a bd
       -0.029305968 0.11523912 0.11794774 -0.057282742
000040 f2 52 6f bd ef 26 84 3e 59 0f 06 be 2f 37 13 3e
       -0.058428712 0.25810954 -0.13091792 0.1437652
000050 87 fe 59 be 8a 20 66 3e 28 35 3b bb 15 f2 11 3e
       -0.212885 0.2247335 -0.002856562 0.14252503
000060 ec 94 05 3e cf 9a 88 bd 6a eb d3 bd 77 38 95 3e
       0.1304509 -0.066701524 -0.10347636 0.29144642
000070 60 6a 2c 3e 78 c6 dc 3d bc 56 fe bd 9f 8e 19 be
       0.16837454 0.107800424 -0.12418887 -0.14995812
000080 13 08 fb 3b e6 40 a2 3d 63 e2 33 be 16 30 d7 3d
       0.0076608746 0.07922535 -0.17566828 0.105072185
000090 96 3f 1d 3e a7 8d 32 3e 25 38 56 3e ce d6 2d 3e
       0.15356287 0.17436849 0.20919855 0.16976473
0000a0 84 63 57 3e 21 09 7c 3e d8 d1 3c be f0 78 4f be
       0.21034056 0.24612857 -0.18439424 -0.20260978
0000b0 49 a1 da bd f4 be ea 3d 4e d4 5e 3e 67 97 56 3d
       -0.10675294 0.11462203 0.21760675 0.052390482
0000c0 6c 4b 2b be 69 cd 03 be 1f 66 4e be 9c b5 48 3e
       -0.1672799 -0.12871327 -0.20156144 0.19600528
0000d0 bf 18 2a be b9 d8 82 3e 76 26 13 be 7a e1 9d bd
       -0.16611002 0.2555597 -0.1437014 -0.07709022
0000e0 e1 52 06 3e 05 2e 43 3e a0 66 ec bd e6 71 8b 3e
       0.13117553 0.19060524 -0.11543012 0.27235335
0000f0 0b 5d 7a 3d d4 21 8a 3d 45 7c c0 3d a2 22 fd bc
       0.06112389 0.067447335 0.093987025 -0.030900303
000100 94 0e 92 3e 9a 75 68 bd 0d c7 88 be 17 22 3f 3e
       0.28526747 -0.05675278 -0.26714364 0.18665348
000110 d6 f8 27 3e 37 f2 85 3e b1 92 cb bc 80 63 77 3e
       0.16403517 0.26161358 -0.024850221 0.2415905
000120 54 f1 c4 bd 48 4d ab bd c0 12 6d be b1 d6 34 be
       -0.09616342 -0.083643496 -0.23151684 -0.17660023
000130 ac 90 28 3e d8 87 0f 3e 25 11 7b 3e 7f ea c0 bd
       0.16461438 0.14016664 0.24518259 -0.094197266
000140 12 3c e6 bc a3 c9 68 3e 5f 81 3d be 23 1b bd bd
       -0.028104816 0.22733168 -0.18506382 -0.092336915
000150 69 44 71 be fb 92 09 be 87 4a 23 be d7 cb 62 3e
       -0.23561253 -0.13434975 -0.15946399 0.22148071
000160 a1 f9 3a be 14 13 38 be 2a 4d 3f bd 44 0e 44 3e
       -0.18259288 -0.17976028 -0.04670445 0.19146067
000170 06 9c 5a be df cf 80 3d 04 76 0c bd 74 4d 34 bd
       -0.2134858 0.06289648 -0.034292236 -0.044019178
000180 55 77 a5 be de 2b ce 3d 14 34 f8 bd 19 e5 09 3e
       -0.32317606 0.10066961 -0.12119308 0.134663
000190 4f b6 9e 3c c0 47 b0 3d 51 f7 51 3e 84 74 84 be
       0.01937404 0.08607435 0.205045 -0.25870144
0001a0 01 ba 85 be 0f 86 fb 3d 0d 91 5c 3e 4b ca db 3d
       -0.26118472 0.12281429 0.21539707 0.10731944
0001b0 27 08 72 3e d1 cc 73 3e 9a bf ab 3e 92 37 a0 be
       0.23635922 0.238086 0.33544618 -0.31292397
0001c0 fb 33 36 3e e8 ae 23 3e ad aa 65 3e f7 42 38 3e
       0.17793266 0.1598469 0.22428389 0.17994295
0001d0 8f cd 3f 3e 14 ef 77 be 1b 65 06 bd 4f a5 82 be
       0.18730758 -0.24212295 -0.032811265 -0.25516745
0001e0 35 52 3e 3e d7 bc 28 bd 7c 98 a9 3d 40 cb 32 be
       0.18586047 -0.041195717 0.08281037 -0.17460346
0001f0 bb e1 a6 3c 72 32 97 3d 1d 9a d5 3c fc f0 fb bc
       0.020371309 0.073826686 0.026074464 -0.030754559
000200 9a 40 34 3e 71 30 62 be 26 ea 0d be 46 94 92 3c
       0.17602769 -0.22088791 -0.13858852 0.017892968
000210 ed 01 eb 3c f5 96 d6 3d 1e ab 13 bd d9 4b a4 3d
       0.028687442 0.104780115 -0.036051862 0.08022279
000220 ff 48 69 3a f8 c9 ba 3c d4 5e 58 3e 81 04 ad 3d
       0.0008899122 0.022801384 0.21129924 0.08448125
000230 30 8c 42 3d 01 2a 7e bd 86 aa 3f 3e cc 63 02 bc
       0.047496974 -0.062051777 0.18717393 -0.007958364
000240 2f 17 65 3e 05 dc a9 bd 9e 2b 42 be 98 82 08 3e
       0.22372125 -0.082939185 -0.18961951 0.13331068
000250 87 2a a6 3d 88 3e 3a 3d 15 95 8d 3b 6d 16 0f be
       0.0811358 0.04546979 0.0043207505 -0.13973399
000260 97 f0 ec bb 14 2d 2e bd 75 db e5 3d 90 67 1c 3e
       -0.007230829 -0.04252346 0.11223499 0.15273881
000270 45 41 d6 bc 60 7a 04 be ae 28 36 3e 91 06 47 be
       -0.02615417 -0.12937307 0.17788956 -0.19436099
000280 e4 ab 0b 3e bc 8e fd 3c b3 c0 78 be 46 b7 cd 3d
       0.1363979 0.03095185 -0.24292259 0.10044722
000290 1d 60 5e be 8d 3e a2 bd bc d6 7d 3e 54 e4 c3 bd
       -0.21716352 -0.07922087 0.24788946 -0.095650345
0002a0 37 f3 8a 3d dd 44 4b be ff 22 2e bc 9d 5b ad 3d
       0.06784671 -0.19850488 -0.010628461 0.084647395
0002b0 f2 cd 9a bd 4d 2d fe bc cd ce c2 bc 23 81 a8 bd
       -0.07558812 -0.03102746 -0.02378025 -0.08227756
0002c0 f6 1f 1e be 44 34 51 be 15 98 cf 3d 84 3c 47 bd
       -0.1544188 -0.20430094 0.10136429 -0.048641697
0002d0 f2 44 56 be 70 f7 0d be 0b 72 63 3e 16 e9 86 bc
       -0.20924738 -0.13863921 0.22211473 -0.016468566
0002e0 2c a5 09 3e 61 46 80 3d 6d bf 2f bd 28 5f 94 bd
       0.13441914 0.06263424 -0.042907167 -0.07244712
0002f0 94 bb 09 bd 61 79 a4 bd a6 a6 7b 3e d1 94 78 3e
       -0.033626154 -0.08030964 0.2457529 0.24275519
000300 f2 a5 c8 3c e8 e8 41 39 34 c9 ea 3d e8 96 09 3e
       0.024493191 0.00018492679 0.11464158 0.13436472
000310 ba 34 76 3e 1d 5a ed 3d f0 06 19 3e d8 ef 77 3e
       0.24043551 0.11589453 0.14944053 0.24212587
000320 40 bc b8 bc aa e2 24 bb e0 b1 54 be 56 42 84 bd
       -0.022550702 -0.0025159516 -0.20770979 -0.06457965
000330 ca 86 f2 3d 71 79 93 be 03 2f ed 3d 4c d8 14 3e
       0.11842115 -0.2880359 0.115812324 0.14535636
000340 6b 7b 30 3d b7 35 75 3e a6 68 13 3e 2c 0b df 3d
       0.04308645 0.23946272 0.14395389 0.10890803
000350 8f 8f 17 3d fc 7f 87 bd 70 5b 40 be 97 67 57 bd
       0.037002143 -0.06616208 -0.1878488 -0.052589025
000360 d8 d4 d1 3d 3e d0 21 3e f0 36 13 be 42 0e 87 be
       0.10245675 0.15802094 -0.14376426 -0.26378065
000370 e9 09 0f 3e 9d 76 47 be 2a 99 d1 bd 1c 57 f9 bc
       0.13968624 -0.19478841 -0.10234292 -0.030437045
000380 5c cd 27 3d 52 e6 47 3e f9 d0 02 be 17 19 20 3e
       0.04096733 0.19521454 -0.12775029 0.15634571
000390 b3 55 4f 3e e6 33 94 bd 64 2f 05 3b 5c 03 4e be
       0.20247535 -0.07236461 0.0020322436 -0.20118469
0003a0 36 bb bf 3c ad 8a 27 be 09 de 25 bc 30 84 17 3d
       0.023404699 -0.16361494 -0.010123738 0.0369913
0003b0 e4 e2 ee 3d 01 62 31 3e ce 48 1b bd bd 86 65 3e
       0.1166437 0.17322542 -0.03791123 0.2241468
0003c0 82 0f bd 3c 47 5a d7 bc b4 63 4d 3e 81 c8 44 bb
       0.023078684 -0.026288165 0.20057565 -0.0030026736
0003d0 4e a1 66 be 46 ef 69 3e cf a0 9f bd 93 23 58 3d
       -0.2252247 0.22845182 -0.07794344 0.0527683
0003e0 21 f8 56 be 7c 67 eb 3d 97 cf 0c 3d 60 c8 45 3e
       -0.20993091 0.114943475 0.03437766 0.19314718
0003f0 b9 e7 41 be e9 69 85 3e 51 61 ff bd 1b 1d 1e 3e
       -0.18936051 0.26057366 -0.124697335 0.1544079

lin_dict.item.bias f4 [64]
000000 2a 58 0e be be 91 1f 3e ff fa 7f 3e 70 d0 81 3e
       -0.1390082 0.1558294 0.24998091 0.25354338
000010 8d e6 5e 3e 95 5c 6c be 25 82 2f 3e a7 a3 19 3e
       0.21767636 -0.23082192 0.1713949 0.15003835
000020 62 cc 6f 3e ad 2a 9d 3d be 0b c2 3d 36 b5 5d 3e
       0.2341781 0.076741554 0.09474896 0.21651158
000030 e6 ce b0 3c 86 40 89 3d 86 45 63 3d aa 8a 81 3e
       0.021583032 0.0670176 0.055486225 0.25301105
000040 14 5c 4e 3e 3e 07 ab 3d e0 af 1f be cb 8d 8a bd
       0.20152313 0.08350991 -0.15594435 -0.06765326
000050 ae ef cd 3d bb 4a 85 3e 37 fe 4c bb ba 2a 89 bd
       0.10055481 0.26033577 -0.0031279454 -0.066976026
000060 1b 55 e6 3c fb 28 02 3d 71 51 d2 3d 11 6b 49 be
       0.028116753 0.031777363 0.1026944 -0.19669749
000070 9d ba 0b 3d ab b0 08 be 5e 6d 39 bd 8a 62 b6 3d
       0.034113515 -0.13348643 -0.045270316 0.089055136
000080 95 86 2d 3d 4a e3 2f 3d 6a 13 41 be 12 3d 60 be
       0.042364676 0.04294137 -0.18855062 -0.21898296
000090 fc f3 cc 3d 76 07 27 3e 09 05 85 be 81 b2 83 3e
       0.10007474 0.1631144 -0.25980404 0.25722125
0000a0 23 31 31 be 84 b7 bb bd b6 79 f0 3d a2 e7 d9 3d
       -0.173039 -0.09165862 0.117419645 0.106398836
0000b0 71 a5 56 ba 6e 01 92 3d e2 b4 1e be 90 88 04 be
       -0.0008188105 0.07129179 -0.15498689 -0.1294272
0000c0 7d 8a a3 be 75 77 46 3e 13 94 69 3d f2 ef 7b be
       -0.31941596 0.19381507 0.05702598 -0.2460325
0000d0 2f 20 2e bd 9b c4 28 3e 98 cd c1 3d 92 1f c8 bd
       -0.04251116 0.16481249 0.09463042 -0.097716466
0000e0 58 0e 31 3e 2b 6e 4d 3e 2a 15 33 be db 1d 2a 3e
       0.17290628 0.20061557 -0.17488542 0.16612951
0000f0 aa 03 23 3d 8a b8 1c 3e c3 b0 f6 bd f3 d8 28 3d
       0.039798416 0.15304771 -0.12045433 0.041222524

lin_dict.group.weight f4 [64, 26]
000000 f7 52 13 3e 81 85 59 bd a8 d7 ce 3d 24 af 81 bd
       0.14387117 -0.053105835 0.10099727 -0.063322335
000010 12 4b 38 bc bc a8 88 3d 29 dd 20 3e 0c 1f 11 3e
       -0.011248367 0.066728085 0.15709366 0.14172
000020 3e 57 e2 bd 13 e6 37 be 40 9e f0 3d a6 cc 65 3d
       -0.110517964 -0.1795886 0.11748934 0.05610337
000030 06 2a 03 be 6b 8d e1 bd 9f cb 3b be 7b f2 3f be
       -0.12809 -0.110133015 -0.18339394 -0.18744843
000040 84 6f d8 bd 09 00 0f be 23 6e 1e 3e 75 b0 60 bd
       -0.10568145 -0.13964857 0.15471701 -0.054855783
000050 ec 37 be 3d 89 21 ba bb 83 2f 4a bd c7 65 44 bd
       0.0928801 -0.0056802672 -0.049361717 -0.047948625
000060 1f 0b ff 3d 05 58 e7 3d 6e c9 35 3d 7e 7f 66 3c
       0.12453293 0.11296085 0.04438155 0.014068482
000070 32 4d 0d be 18 e3 25 3e 73 bc 1c bc 30 ba 43 3e
       -0.13798979 0.1619991 -0.009566414 0.19113994
000080 45 45 2c be 17 55 5a b9 d1 93 1d be b3 0a 09 3e
       -0.16823299 -0.00020821799 -0.15388419 0.13382988
000090 bb 8d bf 3d bb 02 28 3e 09 71 9c 3d 36 47 1a 3e
       0.09353205 0.16407292 0.07638747 0.15066227
0000a0 a4 16 f6 3d c2 11 a8 bd b2 71 a8 bd f4 c9 d2 3d
       0.12016037 -0.08206512 -0.08224811 0.10292426
0000b0 e8 a6 ac bd e7 96 df bd c4 bf e1 3b f4 5b de bd
       -0.08430272 -0.10917454 0.0068893153 -0.108573824
0000c0 d0 b7 04 be 82 46 10 be 41 df c9 3d 4c 38 39 bd
       -0.12960744 -0.14089397 0.098570354 -0.045219705
0000d0 cf 38 30 3e 60 4f 1f be 54 03 09 3d 59 cd 58 3e
       0.17209171 -0.15557623 0.03345044 0.21172084
0000e0 a4 7f c0 3c 6f dd 08 3d 67 ec f2 bc d5 e2 cd 3d
       0.023498364 0.0334143 -0.029653741 0.100530304
0000f0 48 53 3b be f9 42 c2 3d 7f e1 e8 3d 8e 60 a9 3d
       -0.18293488 0.0948543 0.11371135 0.082703695
000100 ef aa 2c be a1 fa a7 bd 38 ec 6b 3e 1c 84 5d 3d
       -0.16862081 -0.082021005 0.23039329 0.054081067
000110 5d ff 3b 3d cc 4f d8 3d c3 07 5a 3e 81 b4 3e 3d
       0.04589783 0.10562095 0.21292023 0.04655886
000120 59 4a eb 3d c2 c2 01 be 6b fb 4f 3e de 77 3f bd
       0.1148879 -0.1267195 0.20310752 -0.046745174
000130 7b eb e2 bd 7f 2b 77 3c 86 49 04 be 55 c3 88 bd
       -0.110800706 0.015086054 -0.12918672 -0.06677882
000140 07 ad 3d be 11 15 2b bd fe 67 8f 3d 93 3c 31 be
       -0.18523036 -0.041768137 0.07002257 -0.17308263
000150 41 35 63 be e8 52 d5 3d e5 cf 8f bd 14 ab 35 be
       -0.22188284 0.10416204 -0.070220746 -0.17741042
000160 d9 82 e2 3d eb 11 7a be f3 f3 a0 bd b1 8f fc 3d
       0.110601135 -0.24420898 -0.078590296 0.123320945
000170 68 1c 4b bd 06 64 8f bd 29 e7 28 3e 4a 89 f1 3c
       -0.049587637 -0.070015 0.1649443 0.02948441
000180 4d ce 06 be c2 f6 16 3e 80 9b 08 3e 72 28 e2 3d
       -0.13164635 0.14742568 0.13340569 0.110428706
000190 e8 8f 5e be d1 2f 46 3d 88 e4 27 be ed a9 9f 3d
       -0.21734583 0.048385445 -0.16395772 0.07796083
0001a0 cb 3d 64 3b 2c bc 03 3d 71 ad 44 3e 94 03 ce bc
       0.003482687 0.032161877 0.19206788 -0.02514819
0001b0 3d 7e 9c 3d 62 dd 8f 3c 03 f1 3f 3e bc 45 37 be
       0.076412655 0.017561618 0.18744282 -0.17897695
0001c0 0b 86 a3 3d 34 06 e4 3d fa d0 b9 3d 97 92 b8 bc
       0.07984551 0.11133996 0.09073062 -0.022530837
0001d0 04 df 25 be 30 e2 7d 3d e9 a5 02 3e 0d ea 35 3e
       -0.16198355 0.061983287 0.12758602 0.17765065
0001e0 65 c9 0d 3e 72 82 d4 bd 10 66 3f bd 5f 68 3c 3e
       0.13846357 -0.10376443 -0.046728194 0.1839919
0001f0 01 a8 25 3e 1f 77 4e 3d 89 f3 bc 3d 54 13 2f be
       0.1617737 0.05040657 0.09226138 -0.17097217
000200 b9 76 34 bc 80 9e 37 be 87 4c 6c 3c 40 fd 47 3e
       -0.011014634 -0.17931557 0.014422542 0.19530201
000210 f8 af 01 be 20 72 19 3e b9 b7 10 3c 34 dd 1f be
       -0.12664783 0.14984941 0.008832865 -0.15611726
000220 1b b7 2b 3e 10 67 c4 bd 2a df 83 bd f5 cf 13 3e
       0.16769068 -0.0958997 -0.064390495 0.14434798
000230 67 47 15 be a1 f3 a8 bd 0b eb d8 3d 65 38 e9 bd
       -0.14578019 -0.082495935 0.10591706 -0.113877095
000240 ed 84 10 3e 26 3a e4 3d ad 49 06 be 7d 7a 11 3e
       0.14113207 0.111439034 -0.13114043 0.14206882
000250 b4 0f 9a 3d 1d eb 64 3e 9a 54 5c 3e a6 da 2f 3d
       0.075225264 0.22355314 0.21516648 0.04293313
000260 e0 b0 13 3e d0 15 a1 3d 15 bd c6 3d fd 0c ed 3d
       0.14422941 0.078654885 0.09704033 0.11574743
000270 93 45 3f 3e b8 8f 3f bd bf b5 d1 3c 85 07 99 bc
       0.18678884 -0.04676792 0.025599359 -0.018680343
000280 e2 81 03 bd 5b 1d dd bc ee 6f 4a 3e f5 79 c6 3d
       -0.032106288 -0.026991537 0.1976926 0.0969123
000290 43 a7 7b bd b4 dd 0b be 1e 2d bf 3d 9e 02 36 3e
       -0.06143881 -0.13658792 0.09334777 0.17774436
0002a0 01 2f 77 3d 97 91 45 be 7d 40 84 bc c2 8e af bc
       0.06034756 -0.1929382 -0.016144032 -0.021430377
0002b0 f4 2f 54 3c 25 e9 c6 3d fc d9 17 3e 87 98 2a be
       0.012950886 0.097124375 0.14829248 -0.16659747
0002c0 fe 64 07 be 9b 23 19 3c d6 7a fc 3c 94 ab bc bc
       -0.13222119 0.009346868 0.030820291 -0.023031034
0002d0 ad 91 bd 3d a1 23 3b 3e e0 c7 57 be 5b 21 51 be
       0.09256301 0.1827531 -0.2107234 -0.2042288
0002e0 f1 27 d8 3d 52 cb 15 3e ae d8 2d be fa a5 15 bd
       0.10554493 0.14628342 -0.16977188 -0.03653524
0002f0 6f 8e 4d be de 8b f6 bb fa d6 28 3e 44 0c 4e be
       -0.20073865 -0.0075239977 0.16488257 -0.20121866
000300 11 b5 5b bd be 50 57 be ae 81 e6 3c b6 c7 85 bd
       -0.053639475 -0.21026894 0.028138008 -0.065322325
000310 89 d8 65 be 85 86 da 3b f3 b3 fa bd 21 e6 16 3e
       -0.22445883 0.006668868 -0.12241354 0.14736225
000320 50 ae a1 3d 26 af 82 3d 78 b7 6c bd 14 0d 78 3d
       0.078945756 0.06381063 -0.057792157 0.060559347
000330 0b f0 13 be 33 9b 9d 3d cb 27 ce bb 98 1a c4 b9
       -0.14447038 0.076956175 -0.006291365 -0.00037403847
000340 86 23 76 be 0f fa 63 3e 3e 79 d2 bd 9e 79 2c 3c
       -0.24036989 0.22263359 -0.10277031 0.010527043
000350 97 2c 8c 3d f9 da 43 bd 04 d0 88 3b 3b 8e 05 3d
       0.06844442 -0.04781625 0.004175188 0.032606345
000360 fc df 08 be 40 a6 e7 bd 92 15 be 3d f9 16 46 be
       -0.13366693 -0.113110065 0.09281458 -0.19344701
000370 62 c5 bf 3d d8 86 78 3d 2a ee 82 bc e1 65 3c 3e
       0.0936382 0.060675472 -0.015982706 0.18398239
000380 96 52 f7 3d c7 52 12 be f1 0b 27 be 0a ee c2 3d
       0.12076299 -0.1428939 -0.16313149 0.095180586
000390 9e a1 29 be 62 ef 29 be 4c 6f 04 be d4 89 2f bd
       -0.16565558 -0.16595224 -0.12933081 -0.042856053
0003a0 84 c2 4b 3d 23 3b 38 3d 38 1b 16 3d 25 dc 53 3e
       0.04974605 0.044978272 0.03664705 0.20689447
0003b0 3c 6e ca bd f9 0a 8b bb 94 83 82 3c 3b 9a b8 3c
       -0.09884307 -0.0042432514 0.015931882 0.02253448
0003c0 2e fb 51 3e 5e b0 57 3e 5d ad 34 3e 47 f2 8d bd
       0.20505974 0.21063372 0.17644258 -0.06930976
0003d0 3b b1 02 bd ac 02 9e bc d5 83 c1 bd a1 42 75 3d
       -0.0319073 -0.019288383 -0.09448973 0.059877995
0003e0 78 81 d3 3d cf 94 88 3c 38 52 0b 3d f8 7a ef 3d
       0.103274286 0.01667252 0.034013957 0.11693376
0003f0 01 1d a4 3d fd c3 db 3d 22 d8 8e bd da df 29 3e
       0.080133446 0.10730741 -0.06974818 0.16589299

lin_dict.group.bias f4 [64]
000000 95 b1 1b 3e 7e 53 8a 3d 24 0c 58 3d 30 30 a0 3d
       0.15204461 0.06754206 0.052745953 0.07821691
000010 c5 94 a0 bb c0 9c b3 3c 9c b4 0b be 63 71 0f bd
       -0.004900547 0.02192533 -0.13643116 -0.035020243
000020 51 be 67 3d 09 11 80 bc fd 0e 4f bd fd 3a 23 be
       0.056577984 -0.015633123 -0.050551403 -0.15940471
000030 d6 2a 86 3d 81 02 01 bd 9e 77 a0 3d 80 15 37 bc
       0.06551139 -0.03149653 0.07835315 -0.01117456
000040 26 57 7e 3d e0 93 10 be be f0 2c be 3b e9 42 be
       0.06209483 -0.1411891 -0.16888711 -0.19034283
000050 89 d7 0e 3e db 82 c2 bd 1f 47 37 3e 45 1c 11 be
       0.13949408 -0.09497615 0.17898224 -0.1417094
000060 ad 1c 1a bd 32 a9 14 3e 7d c3 3e be 60 a2 37 3e
       -0.037625004 0.14517668 -0.1862926 0.17933035
000070 b3 43 37 3e 31 f4 8e bd a8 62 28 3d 4a a9 6d 3d
       0.17896919 -0.069801696 0.04110971 0.058022775
000080 d0 27 de bd 6e 70 05 be 35 68 7a bd a2 ba cf 3d
       -0.108474374 -0.1303117 -0.061134536 0.10143019
000090 ac 4f 07 3d c7 6e 59 3e 30 66 1d 3e d4 9c 34 3e
       0.033034965 0.21233664 0.15371013 0.1763795
0000a0 6e 07 08 3d 12 23 3c bd 74 06 43 be b0 48 07 bd
       0.03321021 -0.045931883 -0.1904543 -0.033028305
0000b0 96 e7 b8 3c 4b d1 4a 3d b7 07 1c be f5 17 42 3e
       0.022571366 0.049516004 -0.15237318 0.18954451
0000c0 85 5c f6 bd 75 68 26 3d 04 6d 41 3e 47 ce 8c 3d
       -0.120293655 0.04062696 0.18889242 0.06875282
0000d0 0c eb 15 bc 5e c1 b6 3d 21 f0 12 bd 4c 57 8e bd
       -0.009150278 0.089236006 -0.035873536 -0.06950244
0000e0 07 c4 28 3e d3 8c 1f 3c 3b e0 3c 3e 08 25 36 3d
       0.16481028 0.009738165 0.18444912 0.04446891
0000f0 b1 f8 48 be 98 15 1b 3e 41 0d d7 bd ed 8d 80 3c
       -0.19626118 0.15144956 -0.10500575 0.015692675
